…
==================\n","model = VGG16_CIFAR10().to(device)\n","criterion = nn.CrossEntropyLoss()\n","optimizer = optim.Adam(model.parameters(), lr=0.0005)\n","\n","print(model)"],"metadata":{"colab":{"base_uri":"https://localhost:8080/"},"id":"JLY2me6b3wiK","executionInfo":{"status":"ok","timestamp":1765464612974,"user_tz":-330,"elapsed":512,"user":{"displayName":"Sakshi Khode","userId":"00934498115475624089"}},"outputId":"aee11681-35d7-4cc9-8940-3d1d721f310b"},"execution_count":5,"outputs":[{"output_type":"stream","name":"stdout","text":["VGG16_CIFAR10(\n","  (features): Sequential(\n","    (0): Conv2d(3, 64, kernel_size=(3, 3), stride=(1, 1), padding=(1, 1))\n","    (1): ReLU(inplace=True)\n","    (2): Conv2d(64, 64, kernel_size=(3, 3), stride=(1, 1), padding=(1, 1))\n","    (3): ReLU(inplace=True)\n","    (4): MaxPool2d(kernel_size=2, stride=2, padding=0, dilation=1, ceil_mode=False)\n","    (5): Conv2d(64, 128, kernel_size=(3, 3), stride=(1, 1), padding=(1, 1))\n","    (6): ReLU(inplace=True)\n","    (7): Conv2d(128, 128, kernel_size=(3, 3), stride=(1, 1), padding=(1, 1))\n","    (8): ReLU(inplace=True)\n","    (9): MaxPool2d(kernel_size=2, stride=2, padding=0, dilation=1, ceil_mode=False)\n","    (10): Conv2d(128, 256, kernel_size=(3, 3), stride=(1, 1), padding=(1, 1))\n","    (11): ReLU(inplace=True)\n","    (12): Conv2d(256, 256, kernel_size=(3, 3), stride=(1, 1), padding=(1, 1))\n","    (13): ReLU(inplace=True)\n","    (14): Conv2d(256, 256, kernel_size=(3, 3), stride=(1, 1), padding=(1, 1))\n","    (15): ReLU(inplace=True)\n","    (16): MaxPool2d(kernel_size=2, stride=2, padding=0, dilation=1, ceil_mode=False)\n","    (17): Conv2d(256, 512, kernel_size=(3, 3), stride=(1, 1), padding=(1, 1))\n","    (18): ReLU(inplace=True)\n","    (19): Conv2d(512, 512, kernel_size=(3, 3), stride=(1, 1), padding=(1, 1))\n","    (20): ReLU(inplace=True)\n","    (21): Conv2d(512, 512, kernel_size=(3, 3), stride=(1, 1), padding=(1, 1))\n","    (22): ReLU(inplace=True)\n","    (23): MaxPool2d(kernel_size=2, stride=2, padding=0, dilation=1, ceil_mode=False)\n","    (24): Conv2d(512, 512, kernel_size=(3, 3), stride=(1, 1), padding=(1, 1))\n","    (25): ReLU(inplace=True)\n","    (26): Conv2d(512, 512, kernel_size=(3, 3), stride=(1, 1), padding=(1, 1))\n","    (27): ReLU(inplace=True)\n","    (28): Conv2d(512, 512, kernel_size=(3, 3), stride=(1, 1), padding=(1, 1))\n","    (29): ReLU(inplace=True)\n","    (30): MaxPool2d(kernel_size=2, stride=2, padding=0, dilation=1, ceil_mode=False)\n","  )\n","  (classifier): Sequential(\n","    (0): Linear(in_features=512, out_features=512, bias=True)\n","    (1): ReLU(inplace=True)\n","    (2): Dropout(p=0.5, inplace=False)\n","    (3): Linear(in_features=512, out_features=512, bias=True)\n","    (4): ReLU(inplace=True)\n","    (5): Dropout(p=0.5, inplace=False)\n","    (6): Linear(in_features=512, out_features=10, bias=True)\n","  )\n",")\n"]}]},{"cell_type":"code","source":["# ===============================\n","# 5. TRAINING + TEST LOOP\n","# ===============================\n","\n","epochs = 10\n","train_losses = []\n","test_losses = []\n","train_acc_list = []\n","test_acc_list = []\n","\n","for epoch in range(epochs):\n","    # ---------------------- TRAINING -----------
…
